lab5/best_model.pkl.npy (npy, 131200 bytes, 1 tensors)

array f8 [4, 4096]
0	0xbfc5bd3d77ca66a6	-0.169837649814146
1	0xbfe2847294a359ae	-0.5786679175460472
2	0xbff281362467c67f	-1.1565457746586671
3	0xbfee3991c2d4e311	-0.944527512102555
4	0xbfe4f0ea7c2ee5b8	-0.6544086862042411
5	0xbfe4781cbc9e6dc7	-0.6396621402704391
6	0xbfc534a46beb812a	-0.16566901464012435
7	0xbfb6dc52d4190bf4	-0.08929937055749787
8	0x3fd154d0650435f0	0.2708016382683516
9	0x3fe8b0f805c0a96d	0.7716026413302594
10	0x3fea8cd82646e811	0.8296929118726003
11	0x3ff314a7c63b00e2	1.1925428145769321
12	0x3fffd654fd58cbda	1.9898271461831798
13	0x3ffaea22ea6586de	1.6821622043720974
14	0x3ff319a3155a92b2	1.1937590440876815
15	0x40025ee84323b920	2.296341442611393
16	0x4007650b1d24f088	2.9243376042268814
17	0x40031533630ced52	2.3853519190139787
18	0x3ffffd838216fb20	1.999392994082605
19	0x3ffc0681107a3fde	1.7515879291204253
20	0x3ff6ff15375a3fc8	1.4372760927399089
21	0x3ffd2c4daf802409	1.823316274212859
22	0x3ff45617c2ef794e	1.2710187544503984
23	0x3fef70d07d3dbc49	0.9825212904087347
24	0xbffd0465273e8499	-1.8135730298020347
25	0xbff19d56b91f34b5	-1.1009127837490216
26	0xbfddd660ca5443fe	-0.46620960005481027
27	0xbfd5a2dfabbc77a8	-0.33806602259744034
28	0x3fd5040266e84295	0.3283697133020181
29	0xbfd300b6a276de5c	-0.296918543488095
30	0xbff80a5664765d66	-1.5025237964926759
31	0x3fd60944c61dec2e	0.3443157133803564
32	0xbfe9ce7ed71f05bc	-0.8064569665513583
33	0x3fa547fdd9eeed17	0.0415648773700587
34	0xc00216a3d1dd8fe1	-2.261054648946797
35	0xbff1aa7de1eb27a2	-1.1041239571518209
36	0xbfe05f4ab9c32a48	-0.5116323116465731
37	0x3fea1a1db6274dcb	0.8156879956899784
38	0xbf830a1fe0d8199f	-0.009296654748152387
39	0x3ff1333888ad0051	1.0750050867936987
40	0xbff768b23ae6a8d6	-1.4630605984516953
41	0x3fe97ffe7c357e3f	0.796874277682896
42	0xbfd01e0090902af6	-0.2518311893224302
43	0x40028adaed78907e	2.317800383798441
44	0x3fe6f686003dab22	0.7175931935028965
45	0x4007f750e52a132e	2.995759764048123
46	0x3ff45f1ef0d304c8	1.2732228667448897
47	0x3fa96f547712d1e5	0.049677505050030914
48	0x3fe7a11a05b5a011	0.7384157287133367
49	0x3faa1c6339149a01	0.05099783012183324
50	0x40074626b90d32b1	2.90925354548957
51	0x3fa508ab36dcb28e	0.04108176274016727
52	0xbfc29e9cfec973ba	-0.14546549263732605
53	0xbffced141f049794	-1.8078805171621513
54	0x4002ce103860e5bc	2.350616875130724
55	0xbfc43fbf26a18ed6	-0.15819539438518032
56	0xbfb01758532a7687	-0.06285621672074103
57	0x400f2ef21a92c408	3.8979227138556816
58	0x3fecbf82db327941	0.8983778268045982
59	0x4014e55151440137	5.2239430139309695
60	0xbffdf805ac6e1243	-1.873052285723262
61	0x3ffcbcac223b0cd9	1.7960625970015853
62	0xbff7d76444e0f4dd	-1.4900858583999288
63	0x3feb5e55e05185df	0.8552655583591181
64	0xbfd50cf8f016fccd	-0.32891677328366314
65	0x3fed0144d6416dcc	0.9064048943213776
66	0xbffbb5e1791a018b	-1.731904480984755
67	0x3ff35e91277b41f7	1.2105876486058358
68	0x40011859c1319bcf	2.1368899434341766
69	0x3ff4fef826daf64b	1.3122483747278177
70	0x4002d198eef6cb59	2.35234247866303
71	0x3fb4d782ec632678	0.08141344329046685
72	0x4003f6255c0d88f7	2.49518844524675
73	0xbfb62537a34547bb	-0.08650539146518003
74	0x4007c67f12f712b6	2.9719220620775912
75	0x3fc6e75733f4e32f	0.17893495594923922
76	0x40079e5242d4dc11	2.9523053380212407
77	0xc003456f67d6c181	-2.4089038956082622
78	0x3fd067af8c9efa78	0.25632847530861325
79	0x400676a9da1da629	2.8079411545084167
80	0x3fd345c1e4a8c4f0	0.3011326535225427
81	0x4018bdbe30d4584a	6.185295832596305
82	0x3fe0090d22e982bc	0.5011048967245055
83	0x3ff01a9763b7f195	1.0064920325522497
84	0xc00646844456bb2a	-2.7844319666832194
85	0x400849227a69e1ba	3.035710293155913
86	0x3fdc6432966e078b	0.44361557665262613
87	0x400003ff8a7ac8a0	2.0019522494049653
88	0x3ff9fb0654f6bacf	1.6237853354356735
89	0x4001bc7d65e6e6b6	2.2170360528078517
90	0x3ffec49d096a324b	1.9230013244406503
91	0x3ff6d6bb68d8593b	1.4274248214256449
92	0x3fec3979418a7636	0.8820158271880192
93	0x3ff3a7d581489ed5	1.2284750986236095
94	0x3fe3d1dc906820db	0.6193678684658396
95	0x3fe8684bdd4ea6ad	0.7627314875037051
96	0x4016a69cb20c727e	5.6627071209046544
97	0x3fe9a80a3536fb87	0.8017626799918255
98	0x3fdfa14b939c95c8	0.4942196790237543
99	0xbfb6c3059d4ef811	-0.08891329851664433
100	0x3fdb2bcc47e131f6	0.42454821605204474
101	0x3fcc1cf8e6cf5f2f	0.2196341635706118
102	0x3ff29ed7db82f5b7	1.163780076472319
103	0x4011434e8feb0d9f	4.315729378434667
104	0x3ff6320563436820	1.3872121694062187
105	0x3ff72188bc424f5e	1.4456870416515453
106	0xbf91f4802f1c5add	-0.01753425872365254
107	0x3fffc41eb5460e61	1.9853808480264876
108	0xc005b3b2eec2d4c9	-2.7127436307151567
109	0xc002a689f7512ad3	-2.3313178369183816
110	0xbfed4bd921b5f6f0	-0.9155088098920867
111	0xbfe34b2523461f14	-0.6029229821151341
112	0x3feec1d16a33e346	0.9611594270964836
113	0xbff60fa2cc6023b4	-1.378817365972492
114	0xbfd548b41825c636	-0.33256246908340203
115	0xbfe30c52a302aecf	-0.5952542480276523
116	0xbfe2edf8b8b5c9b0	-0.5915492637271225
117	0x3fc7782623864a6d	0.1833541558704214
118	0xbfe401badd038027	-0.6252111736939739
119	0x3fe141f0e47e3f1c	0.5392994368321271
120	0x3fdaf4250921d2cc	0.42115140811737883
121	0x3fdbb93d7d79018f	0.4331811642951146
122	0x3fea520750a30d6a	0.8225132536830817
123	0x3fca1d1e1eb38588	0.20401360034069804
124	0x4010a43b267708fa	4.16038189031155
125	0x3ff42569af1f1a6c	1.2591339913066362
126	0x3ff23a44c8cce19e	1.1392257541429909
127	0x3ff412780009f99f	1.2545089723131253
128	0x3ff03bca3e272b52	1.0145971706248997
129	0xbfca200f2a92954e	-0.20410337046375066
130	0x3fc78ecc89b99605	0.1840453789219937
131	0xbfab7cc8618c4a07	-0.053686391742434884
132	0xbfe5be85681f394a	-0.6795069726593195
133	0xbfe88ffea497110b	-0.7675774778986421
134	0x3ffd97fe47f68d59	1.8496077357347842
135	0x3fff09a8c38efa57	1.9398582114223666
136	0x4001e557f7dcdb05	2.2369841923022045
137	0x3ffa6f41cc9470bc	1.652162360324879
138	0xbfe0f76efb78f88b	-0.5302042876790137
139	0x3ff492270c068760	1.28568176934683
140	0x3ff94d2e792adb25	1.5813431485273182
141	0x4000ee84155608c3	2.1164628664856493
142	0xbfbd407cdc0c3dec	-0.11426525470982768
143	0x4006f7864554b917	2.870861570022622
144	0x4003289faf159f6d	2.3948358229135267
145	0x3fea113ca3f844c0	0.814604110959543
146	0x3fe5dea68c8714c5	0.6834290260964272
147	0xbfb14069a25df166	-0.06738910879170631
148	0x3fda0bbb2ed03692	0.4069660145913555
149	0x3fc623e40f28d3c8	0.17297030201157626
150	0xbfdcb99c23043b9b	-0.4488287298162789
151	0x3fc99c1c045aa3f8	0.20007658207512669
152	0xbfbdce8d1a6921b4	-0.11643297095100175
153	0x3fc28e430dbb46ae	0.14496648951039987
154	0xbfa7b63dc9687752	-0.04631226619333852
155	0xbfd934b058529353	-0.3938408720517163
156	0x3fb912bcaf0bfd38	0.09794215463260947
157	0x3fde6c5566205e77	0.475362157566884
158	0x3fbe16de3aaf15d0	0.11753643925393154
159	0x3fd71019287a7768	0.3603575606629108
160	0x3fd1ae054dde9ecc	0.2762463818021217
161	0xbffbd5d433755cc2	-1.73970432377773
162	0x3ff283a6e1e572d3	1.1571415733407562
163	0x3f91d405e83fc066	0.017410366344791227
164	0x3f9f88c2f0ceee94	0.030795141170286103
165	0x3fd797ca4d9ecf43	0.3686395414363128
166	0xbfd59d0bde464fad	-0.33771034914502246
167	0xbfd8f927d33f1523	-0.39020724896939124
168	0xbfecbc6c9d030422	-0.8980010096203197
169	0x3fb48caedb9f1d43	0.0802716528115655
170	0x3fbccfc5906f21da	0.11254534507964511
171	0x3fd9723b5146da4c	0.39759715020355624
172	0x3fb65fe054309a48	0.08740045600334512
173	0xbff010a60e522597	-1.0040646132859814
174	0x3fcba97dd344bff3	0.21610997024390563
175	0x3fffda2521db3fcd	1.990758068324783
176	0x3fe23117ace639b9	0.5684927346172152
177	0xbfc7872922e225f0	-0.18381227687159152
178	0x3fc581b09dad6897	0.16802032183733637
179	0xbff85ad5f1e45adc	-1.522176689997358
180	0x3fff0b1e72ce8dc6	1.9402145847933396
181	0xbfd31c7e0a2245a1	-0.2986140345538733
182	0x3fdbe9cf185df0f8	0.4361455667456222
183	0x3fecdaa968531abe	0.9016921079244964
184	0xbff3999c430beb8f	-1.2250025385862704
185	0xbffa93e5c75dd511	-1.661107805991666
186	0xbfe547dd3df1b796	-0.6650224885795406
187	0x3fe227fc935dc5d6	0.567381179642491
188	0x400799ff3d29f0fe	2.9501938608574383
189	0x4007e700cf5b3dd0	2.9877945136756594
190	0x40054e42fd3c1e3e	2.6632137092563246
191	0x3ff38b5281079ccf	1.2215142288421708
192	0xbfccab0e8de561d1	-0.22397024086491382
193	0x3ff9547fd2817d21	1.583129713333456
194	0x3ff5ee38a36c33c5	1.370659483308587
195	0x3fd8994d574f66c8	0.38435681845076575
196	0xbfa0f3dc06f272d5	-0.033110500190763816
197	0xbffe6d0315122f3a	-1.9016142676436645
198	0xbffb535019454249	-1.70784005996042
199	0x4001129adfc60017	2.134084461431495
200	0xbff8300a4b91cc00	-1.5117285682615602
201	0xbff87ede6f0c6113	-1.5309738481356063
202	0xbffbe4f6b6bab48e	-1.7433993471015898
203	0xbff4657415b6c0e2	-1.274768910236212
204	0xbff59e4f6d6f442f	-1.351149966696777
205	0x3fb1c230c6a412cc	0.06936936235076557
206	0xbfc039bd2e41cb5d	-0.1267620540489486
207	0xbff1c60ebcae9cca	-1.1108538980859515
208	0xbfec3114eda665de	-0.8809914247132686
209	0xbfa0fa0506d95b37	-0.033157498441758575
210	0x3ff1da4d6843a697	1.1157964775870022
211	0xbfdb2a96245adce2	-0.42447427320753495
212	0x40061798930c2bbe	2.761521481331754
213	0x3ff19dff3b518d49	1.1010734860545475
214	0xbfc0555fd4b63d14	-0.1276054180748153
215	0xbfebae7ba08971f7	-0.8650491843687281
216	0x3f8084c8325721b9	0.008065761600747888
217	0x3fd5082df97adae9	0.32862424243232496
218	0xbfa58d078c8bbc76	-0.042091594606852675
219	0xbff47a28ce08c19e	-1.279824070759879
220	0xbfe3198508b300c7	-0.5968651933581207
221	0xbfc4fb5abe873746	-0.16392072966703547
222	0xbfdcb22e976b363d	-0.44837536608688194
223	0x3fc36bc15aa3d364	0.15172593045977145
224	0xbfb8467892fb5399	-0.09482530201360219
225	0xbfe4ac108bbf0e17	-0.6460039834423154
226	0xbff1f47a68cebb35	-1.1221870512051286
227	0xbff6a6494bad451e	-1.4155972438932802
228	0xbff4630c5d56034f	-1.2741817136704474
229	0xbff4cf54f5d697e4	-1.300618133836445
230	0x3fd3431bd31c6d8f	0.3009709893828693
231	0xbfdab0d6838178aa	-0.417043331550199
232	0x3fbf91d7b19e4a58	0.12331913076767742
233	0xbfd35aeaff8fb56d	-0.3024241920200755
234	0xbff06e7270af11a3	-1.0269646074021714
235	0xbfe8d75fa5165fc0	-0.7762907242167714
236	0xbfe4307040d1576e	-0.6309129014941683
237	0xbff0a343d8d48b40	-1.0398596258098252
238	0xbffc4febd8bc080f	-1.769512030238278
239	0x3fefaa81a5adec1b	0.989563773720309
240	0xbfdd232ac0b2cab5	-0.45527142351344746
241	0xbff43fcc4c1b222d	-1.265575692452454
242	0xbff1d6e742130ce9	-1.1149666386634698
243	0xbfe255bd61c3c8c1	-0.5729662808864974
244	0xbff09262316cba8f	-1.035738175454444
245	0xbfe78f04a469a59a	-0.7362082682786195
246	0xbffd4d882540ce6c	-1.8314286666108286
247	0xbfcf401fed04e5a2	-0.24414443085860876
248	0xbfcd476c5ab529db	-0.22874216488919683
249	0xbfe6237077fcdef3	-0.6918260901938694
250	0xbff3fb6331a007fa	-1.2488738955003087
251	0xc005e6fdb1e49cc3	-2.7377885721103623
252	0xc0011f4607833537	-2.1402702891270127
253	0xc0074006da7355d5	-2.9062630716750655
254	0xc0091a921c29c2bb	-3.1379739952320427
255	0xc01043c4864998f1	-4.066179369203597
